# parameters
#nc: 80  # number of classes
nc: 10  # number of classes
depth_multiple: 1.0  # model depth multiple
width_multiple: 1.0  # layer channel multiple

# anchors
anchors:
  - [12,16, 19,36, 40,28]  # P3/8
  - [36,75, 76,55, 72,146]  # P4/16
  - [142,110, 192,243, 459,401]  # P5/32

# yolov7 backbone
backbone:
  # [from, number, module, args]    [该层的输入（-1就代表上一层的输出，-2就是上上一层的输出），该层的数量，类名，[输出通道数，卷积核尺寸，步长，padding]]
  [[-1, 1, Conv, [32, 3, 1]],  # 0
   [-1, 1, Conv, [64, 3, 2]],  # 1-P1/2
   [-1, 1, Conv, [64, 3, 1]],
   [-1, 1, Conv, [128, 3, 2]],  # 3-P2/4
   # CBS end

   # ELAN start
   [-1, 1, GlobalPooling, []],
   [-1, 1, Conv, [64, 1, 1]],
   [ -3, 1, Conv, [ 64, 1, 1 ] ],
   [ -1, 1, Conv, [ 64, 3, 1 ] ],
   [ -1, 1, CoordAttention, [ 64 ] ],
   [ -1, 1, Conv, [ 64, 3, 1 ] ],
   [ -1, 1, CoordAttention, [ 64 ] ],
   [ -1, 1, Conv, [ 64, 3, 1 ] ],
   [ -1, 1, CoordAttention, [ 64 ] ],
   [ -1, 1, Conv, [ 64, 3, 1 ] ],
   [ -1, 1, CoordAttention, [ 64 ] ],
   [ [ -1, -5, -9, -10 ], 1, Concat, [ 1 ] ],
   [-1, 1, Conv, [256, 1, 1]],  # 16
   # ELAN end

   # MP1 start
   [-1, 1, MP, []],
   [-1, 1, Conv, [128, 1, 1]],
   [-3, 1, Conv, [128, 1, 1]],
   [-1, 1, Conv, [128, 3, 2]],
   [[-1, -3], 1, Concat, [1]],  # 21-P3/8
   # MP1 end

   # ELAN start
   [-1, 1, GlobalPooling, []],
   [-1, 1, Conv, [128, 1, 1]],
   [ -3, 1, Conv, [ 128, 1, 1 ] ],
   [ -1, 1, Conv, [ 128, 3, 1 ] ],
   [ -1, 1, CoordAttention, [ 128 ] ],
   [ -1, 1, Conv, [ 128, 3, 1 ] ],
   [ -1, 1, CoordAttention, [ 128 ] ],
   [ -1, 1, Conv, [ 128, 3, 1 ] ],
   [ -1, 1, CoordAttention, [ 128 ] ],
   [ -1, 1, Conv, [ 128, 3, 1 ] ],
   [ -1, 1, CoordAttention, [ 128 ] ],
   [ [ -1, -5, -9, -10 ], 1, Concat, [ 1 ] ],
   [-1, 1, Conv, [512, 1, 1]],  # 34
   # ELAN end

   # MP1 start
   [-1, 1, MP, []],
   [-1, 1, Conv, [256, 1, 1]],
   [-3, 1, Conv, [256, 1, 1]],
   [-1, 1, Conv, [256, 3, 2]],
   [[-1, -3], 1, Concat, [1]],  # 39-P4/16
   # MP1 end

   # ELAN start
   [-1, 1, GlobalPooling, []],
   [-1, 1, Conv, [256, 1, 1]],
   [ -3, 1, Conv, [ 256, 1, 1 ] ],
   [ -1, 1, Conv, [ 256, 3, 1 ] ],
   [ -1, 1, CoordAttention, [ 256 ] ],
   [ -1, 1, Conv, [ 256, 3, 1 ] ],
   [ -1, 1, CoordAttention, [ 256 ] ],
   [ -1, 1, Conv, [ 256, 3, 1 ] ],
   [ -1, 1, CoordAttention, [ 256 ] ],
   [ -1, 1, Conv, [ 256, 3, 1 ] ],
   [ -1, 1, CoordAttention, [ 256 ] ],
   [ [ -1, -5, -9, -10 ], 1, Concat, [ 1 ] ],
   [-1, 1, Conv, [1024, 1, 1]],  # 52
   # ELAN end

   # MP1 start
   [-1, 1, MP, []],
   [-1, 1, Conv, [512, 1, 1]],
   [-3, 1, Conv, [512, 1, 1]],
   [-1, 1, Conv, [512, 3, 2]],
   [[-1, -3], 1, Concat, [1]],  # 57-P5/32
   # MP1 end

   # ELAN start
   [-1, 1, GlobalPooling, []],
   [-1, 1, Conv, [256, 1, 1]],
   [-3, 1, Conv, [256, 1, 1]],
   [-1, 1, Conv, [256, 3, 1]],
   [-1, 1, CoordAttention, [256]],
   [-1, 1, Conv, [256, 3, 1]],
   [ -1, 1, CoordAttention, [ 256 ] ],
   [-1, 1, Conv, [256, 3, 1]],
   [-1, 1, CoordAttention, [256]],
   [-1, 1, Conv, [256, 3, 1]],
   [ -1, 1, CoordAttention, [ 256 ] ],
   [[-1, -5, -9, -10], 1, Concat, [1]],
   [-1, 1, Conv, [1024, 1, 1]],  # 70
   # ELAN end
  ]

# yolov7 head
head:
  [[-1, 1, SPPCSPC, [512]], # 71

   # 上采样融合特征图 start
   [-1, 1, Conv, [256, 1, 1]],
   [-1, 1, nn.Upsample, [None, 2, 'nearest']],
   [52, 1, Conv, [256, 1, 1]], # route backbone P4
   [[-1, -2], 1, Concat, [1]],
   # 上采样融合特征图 end

   # ELAN-H start
   [-1, 1, Conv, [256, 1, 1]],
   [-2, 1, Conv, [256, 1, 1]],
   [ -1, 1, Conv, [ 128, 3, 1 ] ],
   [ -1, 1, Conv, [ 128, 3, 1 ] ],
   [ -1, 1, Conv, [ 128, 3, 1 ] ],
   [ -1, 1, Conv, [ 128, 3, 1 ] ],
   [ [ -1, -2, -3, -4, -5, -6], 1, Concat, [ 1 ] ],
   [-1, 1, Conv, [256, 1, 1]], # 83
   # ELAN-H end

   # 上采样融合特征图 start
   [-1, 1, Conv, [128, 1, 1]],
   [-1, 1, nn.Upsample, [None, 2, 'nearest']],
   [34, 1, Conv, [128, 1, 1]], # route backbone P3
   [[-1, -2], 1, Concat, [1]],
   # 上采样融合特征图 end

   # ELAN-H start
   [-1, 1, Conv, [128, 1, 1]],
   [-2, 1, Conv, [128, 1, 1]],
   [ -1, 1, Conv, [ 64, 3, 1 ] ],
   [ -1, 1, Conv, [ 64, 3, 1 ] ],
   [ -1, 1, Conv, [ 64, 3, 1 ] ],
   [ -1, 1, Conv, [ 64, 3, 1 ] ],
   [ [ -1, -2, -3, -4, -5, -6], 1, Concat, [ 1 ] ],
   [-1, 1, Conv, [128, 1, 1]], # 95
   # ELAN-H end

   # 下采样融合特征图 start
   [-1, 1, MP, []],
   [-1, 1, Conv, [128, 1, 1]],
   [-3, 1, Conv, [128, 1, 1]],
   [-1, 1, Conv, [128, 3, 2]],
   [[-1, -3, 83], 1, Concat, [1]],  # route  ELAN-H-1
   # 下采样融合特征图 end

   # ELAN-H start
   [-1, 1, Conv, [256, 1, 1]],
   [-2, 1, Conv, [256, 1, 1]],
   [ -1, 1, Conv, [ 128, 3, 1 ] ],
   [ -1, 1, Conv, [ 128, 3, 1 ] ],
   [ -1, 1, Conv, [ 128, 3, 1 ] ],
   [ -1, 1, Conv, [ 128, 3, 1 ] ],
   [ [ -1, -2, -3, -4, -5, -6], 1, Concat, [ 1 ] ],
   [-1, 1, Conv, [256, 1, 1]], # 108
   # ELAN-H end

   # 下采样融合特征图 start
   [-1, 1, MP, []],
   [-1, 1, Conv, [256, 1, 1]],
   [-3, 1, Conv, [256, 1, 1]],
   [-1, 1, Conv, [256, 3, 2]],
   [[-1, -3, 71], 1, Concat, [1]],   # route SPP
   # 下采样融合特征图 end

   # ELAN-H start
   [-1, 1, Conv, [512, 1, 1]],
   [-2, 1, Conv, [512, 1, 1]],
   [ -1, 1, Conv, [ 256, 3, 1 ] ],
   [ -1, 1, Conv, [ 256, 3, 1 ] ],
   [ -1, 1, Conv, [ 256, 3, 1 ] ],
   [ -1, 1, Conv, [ 256, 3, 1 ] ],
   [ [ -1, -2, -3, -4, -5, -6], 1, Concat, [ 1 ] ],
   [-1, 1, Conv, [512, 1, 1]], # 121
   # ELAN-H end

   [95, 1, RepConv, [256, 3, 1]],
   [108, 1, RepConv, [512, 3, 1]],
   [121, 1, RepConv, [1024, 3, 1]],

   [[122,123,124], 1, IDetect, [nc, anchors]],   # Detect(P3, P4, P5)
  ]
